tfliteModel.tflite (tflite, 4160 bytes, 10 tensors)

dense_45/bias f4 [5]
-2.2724357 -1.3706224 2.9562573 -0.49815238 1.5339477
00000000: 966f 11c0 8e70 afbf 5233 3d40 d40d ffbe
00000010: 6658 c43f

dense_44/bias f4 [8]
-1.0335894 -0.3068581 0.0 -0.15004495 0.65565395 -0.7512377 -1.0339396 -1.0828649
00000000: a84c 84bf 811c 9dbe 0000 0000 62a5 19be
00000010: f0d8 273f 1d51 40bf 2258 84bf 519b 8abf

dense_43/bias f4 [10]
-0.09402326 -0.03366525 -0.10469704 0.0 -0.009600254 -0.1337777 0.1310952 -0.1491167
-0.08254665 -0.07394844
00000000: 448f c0bd 93e4 09bd 676b d6bd 0000 0000
00000010: 624a 1dbc 05fd 08be d23d 063e 0cb2 18be
00000020: 380e a9bd 4872 97bd

dense_42/bias f4 [10]
-0.009747601 -0.002471307 -0.0253361 -0.004243832 0.23612195 -0.061240017 -0.1043138 -0.07153681
0.24313368 0.026341734
00000000: 67b4 1fbc a7f5 21bb a78d cfbc d80f 8bbb
00000010: f4c9 713e d0d6 7abd 79a2 d5bd e481 92bd
00000020: 09f8 783e 9fca d73c

dense_41/bias f4 [10]
0.012077989 -0.009955085 0.26335046 -0.042647872 -0.009991871 -0.076810665 -0.020865606 -0.0017454299
0.035381082 0.009472892
00000000: c2e2 453c a71a 23bc dfd5 863e 89af 2ebd
00000010: f2b4 23bc e94e 9dbd 59ee aabc e9c6 e4ba
00000020: c1eb 103d 3034 1b3c

sequential_8/dense_41/MatMul f4 [10, 2]
0.10387921 -0.08561318 0.12606141 0.029216224 -0.002574578 0.08797356 0.075269096 -0.01901461
0.04306472 -0.03205839 0.0004985322 -0.017665347 2.6074043e-35 8.515158e-37 -0.11977165 0.09200502
-0.15115802 -0.052151646 0.026341502 0.06576746
00000000: a0be d43d f755 afbd 3e16 013e dd56 ef3c
00000010: 40ba 28bb 7b2b b43d af26 9a3d 87c4 9bbc
00000020: a264 303d a94f 03bd eeaf 023a ebb6 90bc
00000030: 26a2 0a06 bee0 9003 d74a f5bd 216d bc3d
00000040: 2bc9 1abe f79c 55bd 22ca d73c 17b1 863d

sequential_8/dense_42/MatMul f4 [10, 10]
0.7223043 0.93443376 -0.4310284 0.30286136 0.32941088 1.3120631 -0.02127008 1.4062101
1.1821893 0.57551014 1.5943475 0.8897445 -0.40307155 1.1969854 0.34556916 0.8410911
0.12741038 1.356743 1.0776327 0.7627433 0.5734493 0.5535618 0.027272994 0.82515925
0.1561794 0.30591673 0.6757028 0.39375895 0.86511326 0.19702171 0.7803753 1.030457
-0.34123012 0.547024 -0.1593111 1.0571809 -0.12982254 0.6267808 1.2302926 0.4086547
-0.56237507 -1.0098181 -0.0034755506 -1.9378859 -0.7740231 -1.4235982 0.29525787 -0.7668049
-0.28730917 0.05686882 0.14614859 -0.053396173 0.15687886 -0.5256571 -0.3894862 0.24208952
-0.0035577978 0.037650064 -0.38580203 -0.46279627 -0.16676223 1.1635535 0.8929458 1.6977166
1.1406487 0.09328428 0.17798127 0.7733521 -1.025826 -0.5737465 0.4172684 1.1503012
0.484536 0.5856972 0.6391111 0.51876926 -0.16560745 1.7001307 0.046969984 0.27858618
-0.5489456 -0.7658854 -0.4393594 -2.0428598 -0.9880852 -0.42115146 0.28313074 -0.49725395
0.14041434 1.0065438 -0.51910675 0.70136404 0.19837333 1.1278365 0.94533896 0.48364234
0.47909993 1.1671453 -0.7104178 -0.936087
00000000: efe8 383f 0d37 6f3f c1af dcbe a510 9b3e
00000010: 8ba8 a83e aff1 a73f 973e aebc b1fe b33f
00000020: fb51 973f a254 133f 9413 cc3f 4cc6 633f
00000030: 655f cebe d136 993f 71ee b03e bf51 573f
00000040: de77 023e c1a9 ad3f deef 893f 2543 433f
00000050: 93cd 123f 3ab6 0d3f 9d6b df3c a33d 533f
00000060: 7eed 1f3e 1ea1 9c3e dcfa 2c3f c69a c93e
00000070: 1078 5d3f 0fc0 493e adc6 473f 04e6 833f
00000080: b7b5 aebe c409 0c3f 7322 23be b451 873f
00000090: 33f0 04be b574 203f 3a7a 9d3f 303b d13e
000000a0: d0f7 0fbf b841 81bf 10c6 63bb a50c f8bf
000000b0: 6126 46bf 7738 b6bf 0a2c 973e 534d 44bf
000000c0: 301a 93be 48ef 683d faa7 153e f2b5 5abd
000000d0: daa4 203e 7791 06bf bc6a c7be 51e6 773e
000000e0: f129 69bb f436 1a3d d887 c5be a2f3 ecbe
000000f0: b8c3 2abe 52ef 943f 1998 643f c74e d93f
00000100: c700 923f d40b bf3d b940 363e 67fa 453f
00000110: 444e 83bf 0de1 12bf 34a4 d53e 123d 933f
00000120: 1a15 f83e 40f0 153f c99c 233f 10ce 043f
00000130: 0095 29be e29d d93f 9963 403d d9a2 8e3e
00000140: b387 0cbf 1111 44bf b7f3 e0be 37be 02c0
00000150: 27f3 7cbf 2aa1 d7be 83f6 903e 1298 febe
00000160: c7c8 0f3e 6dd6 803f 2ee4 04bf 988c 333f
00000170: 6122 4b3e f25c 903f bc01 723f f89f f73e
00000180: 964c f53e 0465 953f f1dd 35bf 66a3 6fbf

sequential_8/dense_43/MatMul f4 [10, 10]
0.27942276 0.32722518 -0.55012786 -0.32832715 -0.7151109 0.156838 0.33596343 -0.03375579
-0.56000173 -0.6098629 0.8961456 1.5418458 0.38251257 0.40168935 -1.1273408 -0.0003392536
1.1605266 1.0667274 -0.8713876 0.4641981 1.4522735 1.7570114 1.062832 1.3230577
-0.6268173 0.3185045 -0.23755625 0.43698895 -0.27274296 -0.23695146 -0.18876189 -0.33052373
-0.19669467 0.38456416 -0.37072724 0.54559886 -0.4103414 -0.0664804 -0.2159341 -0.23969653
-0.48072568 0.17982522 -0.09251915 0.008703929 0.1307475 0.44027328 -0.13621464 0.0051391157
-0.3423692 -0.50752527 1.7413098 1.0874143 0.5018752 1.3417882 -0.1596544 -0.0150570255
-0.73473316 0.08637943 0.7518594 -0.20602116 1.3281572 1.5840214 0.89447093 1.396841
0.39589128 0.48418084 -0.70744354 -0.58538693 0.85467196 -0.94643664 0.5995076 0.6538956
0.905662 0.16285849 -0.5058341 -0.04215691 0.74131364 1.3665203 -0.0036178543 1.3527923
-0.4382678 0.3055118 0.07010168 -0.24420586 0.11081034 0.544122 -0.03903543 -0.18978053
-0.42029044 -0.10611194 -0.17996305 -0.2540824 0.105191745 -0.31394792 -0.5598453 -0.44141072
0.3746058 -0.17353895 -0.4618593 0.04617665
00000000: 8010 8f3e 0f8a a73e 2ed5 0cbf 7f1a a8be
00000010: 8211 37bf 249a 203e 6603 ac3e 8343 0abd
00000020: 465c 0fbf fa1f 1cbf cc69 653f 345b c53f
00000030: b0d8 c33e 3aaa cd3e b44c 90bf d9dd b1b9
00000040: 238c 943f 868a 883f 4213 5fbf 60ab ed3e
00000050: 19e4 b93f c0e5 e03f e10a 883f f459 a93f
00000060: 1977 20bf 0613 a33e f241 73be 04bd df3e
00000070: f7a4 8bbe 67a3 72be cc4a 41be 683a a9be
00000080: 546a 49be 98e5 c43e f6cf bdbe 5eac 0b3f
00000090: 4518 d2be e026 88bd d41d 5dbe 0273 75be
000000a0: ad21 f6be 1a24 383e ae7a bdbd ed9a 0e3c
000000b0: ace2 053e 806b e13e da7b 0bbe 0766 a83b
000000c0: 044b afbe 2ded 01bf 3de3 de3f 6430 8b3f
000000d0: e57a 003f b7bf ab3f 717c 23be beb1 76bc
000000e0: 7917 3cbf b3e7 b03d dc79 403f 36f7 52be
000000f0: 0e01 aa3f 37c1 ca3f 0cfc 643f b0cb b23f
00000100: 43b2 ca3e 8de6 f73e 051b 35bf ebdb 15bf
00000110: c8cb 5a3f ac49 72bf 5479 193f b465 273f
00000120: 77d9 673f 60c4 263e 587e 01bf b9ac 2cbd
00000130: bbc6 3d3f 23ea ae3f 8619 6dbb 4c28 ad3f
00000140: a364 e0be 0b6c 9c3e 7891 8f3d 1a11 7abe
00000150: 88f0 e23d 944b 0b3f 9de3 1fbd d455 42be
00000160: 4f30 d7be 3851 d9bd 3c48 38be 1717 82be
00000170: c56e d73d c8bd a0be 0652 0fbf 9600 e2be
00000180: 55cc bf3e 32b4 31be d278 ecbe ba23 3d3d

sequential_8/dense_44/MatMul f4 [8, 10]
-0.07328869 0.7003374 0.7801907 0.10333121 0.41013303 0.909239 0.2188415 0.17806229
-0.15166901 -0.31017768 -0.26379886 1.2729244 2.0318663 -0.39292473 0.18360163 1.7155857
1.2495043 1.4413925 -0.44370294 -0.19756703 -0.05913788 -0.11825186 -0.11151111 -0.063328266
0.50232077 -0.061470807 -0.010940254 -0.24788487 0.14689153 0.2808227 0.09508824 2.0783048
1.27761 -0.0006940365 -0.3516168 -0.22970739 0.19847377 0.6936803 -0.4952372 0.22582623
-0.034773953 -2.2870212 0.97680783 0.34161073 -0.2557454 1.2139132 2.2847261 -1.826161
0.26661798 0.17774679 -0.4872424 0.62943345 1.4188824 0.43829846 -0.30288547 0.7638986
0.9621332 -0.110855736 -0.4581914 -0.50673836 -0.12647595 2.2081263 0.7946149 -0.49412644
-0.10300594 -0.008607235 0.47746578 -0.10489941 0.38914862 -0.54623556 -0.27368277 0.5610724
0.8306887 0.14391279 -0.3876602 0.9681296 0.06709079 0.41029528 0.20916092 0.28142032
00000000: 6118 96bd 5049 333f 94ba 473f 509f d33d
00000010: f5fc d13e e3c3 683f fc17 603e f655 363e
00000020: 1f4f 1bbe 9ccf 9ebe a510 87be 30ef a23f
00000030: 190a 0240 6e2d c9be 1102 3c3e 5098 db3f
00000040: c2ef 9f3f 8d7f b83f 082d e3be 034f 4abe
00000050: 903a 72bd 082e f2bd f05f e4bd 40b2 81bd
00000060: 1898 003f d0c8 7bbd c03e 33bc 88d5 7dbe
00000070: bc6a 163e fec7 8f3e a0bd c23d f202 0540
00000080: b988 a33f 00f0 35ba 1e07 b4be 6a38 6bbe
00000090: b53c 4b3e 0895 313f bb8f fdbe fe3e 673e
000000a0: 226f 0ebd 8e5e 12c0 1410 7a3f 9ae7 ae3e
000000b0: 10f1 82be 8261 9b3f f438 1240 a5bf e9bf
000000c0: 2782 883e 4103 363e d677 f9be 8d22 213f
000000d0: f09d b53f a868 e03e ce13 9bbe dc8e 433f
000000e0: 5d4e 763f 5508 e3bd 1098 eabe 9bb9 01bf
000000f0: e982 01be f151 0d40 e26b 4b3f 24fe fcbe
00000100: c7f4 d2bd 5c05 0dbc 6576 f43e 80d5 d6bd
00000110: 7d3e c73e 18d6 0bbf 2620 8cbe 71a2 0f3f
00000120: 04a8 543f e05d 133e 667b c6be 57d7 773f
00000130: e566 893d 3912 d23e 482e 563e 5316 903e

sequential_8/dense_45/MatMul f4 [5, 8]
2.490707 0.4326919 -0.42654693 0.33825317 -1.149807 1.5792389 2.1150124 2.5507698
-0.4576366 0.5819754 -0.061766326 -1.3160226 1.9155905 0.44347078 -2.3820076 -0.63374406
-0.26580092 0.76107186 0.18039137 0.4009152 -2.010565 -2.2901735 -4.34274 -0.2636312
-2.8346515 1.1071886 -0.46880955 1.0308682 -2.7317886 -0.6601074 1.0381624 -2.465663
-0.26041234 -4.1925693 0.36745834 -2.913411 1.2532127 -2.7139738 -2.0931733 0.02101015
00000000: be67 1f40 cb89 dd3e 5c64 dabe 852f ad3e
00000010: e02c 93bf 8024 ca3f 5d5c 0740 d03f 2340
00000020: 584f eabe 57fc 143f b0fe 7cbd 6e73 a8bf
00000030: 1232 f53f 9a0e e33e d072 18c0 0d3d 22bf
00000040: 0f17 88be 9bd5 423f 84b8 383e c244 cd3e
00000050: 19ad 00c0 3492 12c0 baf7 8ac0 abfa 86be
00000060: ee6a 35c0 5bb8 8d3f ce07 f0be 7df3 833f
00000070: a0d5 2ec0 ccfc 28bf 81e2 843f 6ccd 1dc0
00000080: c454 85be 8729 86c0 8023 bc3e 5375 3ac0
00000090: 4669 a03f bfb1 2dc0 8df6 05c0 7a1d ac3c
